models/bm_nn.pt (torch, 17384 bytes, 7 tensors)

net.0.weight f4 [64, 21]
0	0x3db95927	0.090502076
1	0x3e667fb9	0.2250966
2	0xbd428373	-0.04748864
3	0x3d933864	0.0718849
4	0xbdcd6b48	-0.10030228
5	0x3e56c45e	0.20973346
6	0xbd9f9c4f	-0.077934854
7	0x3de0c750	0.10975516
8	0x3dd4539a	0.10367508
9	0xbf059aaf	-0.52189153
10	0x3d769042	0.06019617
11	0x3d6bf4de	0.05760657
12	0x3d95aae4	0.073079854
13	0x3c3953d3	0.011311489
14	0x3d87c471	0.06629265
15	0xbecc5b32	-0.39913327
16	0x3e038387	0.12843142
17	0x3dbfa978	0.093584955
18	0xbea6956f	-0.32535884
19	0x3d8cd638	0.068767965
20	0xbe11faf4	-0.14255887
21	0x3db3fdee	0.087886676
22	0xbd1273e0	-0.03575504
23	0x3e3adbba	0.18247882
24	0xbe9c4b07	-0.3052599
25	0x3d4ab1ac	0.049485847
26	0x3b797d76	0.0038069165
27	0xbdb91952	-0.090380326
28	0x3e3e694d	0.18594857
29	0xbeb3b30f	-0.35097548
30	0x3e7266b4	0.2367199
31	0xbe2010fd	-0.1563148
32	0x3d9a8708	0.075452864
33	0xbdede5dc	-0.11616108
34	0x3ce0967e	0.02741551
35	0x3e830084	0.2558633
36	0x3db81920	0.08989167
37	0x3de219e8	0.110400975
38	0x3de30279	0.11084456
39	0xbc7433e6	-0.014904952
40	0x3d1bf01e	0.03807079
41	0xbcb74a57	-0.022374315
42	0x3d266930	0.04062766
43	0x3e309576	0.17244515
44	0x3e314fb7	0.17315565
45	0xbebfa58a	-0.37430984
46	0x3e844029	0.258302
47	0x3dbf9fbb	0.09356638
48	0xbd881fdc	-0.06646702
49	0xbd3c8948	-0.04602936
50	0xbe496cc2	-0.19670394
51	0x3cb53493	0.022119796
52	0xbe098bb3	-0.13432197
53	0x3e055ce6	0.13023719
54	0x3d788bdd	0.06068026
55	0x3dd0ee1a	0.10201664
56	0x3e0112e4	0.12604862
57	0x3db750b2	0.08950938
58	0x3e348735	0.17629702
59	0xbcdd9e70	-0.027053088
60	0xbd0c300c	-0.03422551
61	0xbe5538c0	-0.2082243
62	0xbc1b2ade	-0.00947067
63	0xbb23c7d5	-0.0024990935
64	0xbd54490e	-0.051827483
65	0xbd3b7908	-0.04576972
66	0x3e3063d1	0.17225577
67	0xbd8bda51	-0.0682875
68	0xbe323efb	-0.17406838
69	0xbe0929c9	-0.13394846
70	0x3eb8b0fb	0.36072525
71	0x3c36658e	0.011132611
72	0x3e738a18	0.23783147
73	0xbdd14b18	-0.10219401
74	0xbe5119a9	-0.20419945
75	0xbe60c0e1	-0.21948577
76	0xbe820d49	-0.2540076
77	0x3e332824	0.17495781
78	0x3defdb25	0.117117204
79	0x3e05bb8e	0.13059828
80	0x3c63097a	0.01385724
81	0x3d2f0203	0.042726528
82	0xbca87b59	-0.02056663
83	0xbe358717	-0.17727314
84	0x3e522cce	0.20524904
85	0x3ca00deb	0.019537887
86	0x3ddb710f	0.107149236
87	0xbdce65c4	-0.10078004
88	0xbe3e284e	-0.18570063
89	0x3d172a24	0.036905423
90	0x3da5b842	0.08091785
91	0x3d46420a	0.048402824
92	0x3ddda2ee	0.10822092
93	0x3ea5fd94	0.32420027
94	0xbe1236ee	-0.14278767
95	0xbec00319	-0.37502363
96	0x3e33b872	0.17550829
97	0xbd36662d	-0.044531036
98	0xbe169d90	-0.14708543
99	0xbac92a48	-0.0015347684
100	0xbe56822a	-0.20948091
101	0x3e63acd7	0.22233902
102	0x3d19e6a3	0.037573468
103	0xbdd99923	-0.10624912
104	0x3c4f5177	0.0126537
105	0xbe467f6c	-0.19384545
106	0xbe8fe277	-0.28102466
107	0xbbb77886	-0.0055990843
108	0xbea77c58	-0.32712054
109	0xbdbf24b6	-0.09333174
110	0x3e426970	0.18985534
111	0x3d45dbe0	0.048305392
112	0x3e94f070	0.2908969
113	0xbec93e04	-0.39305127
114	0xbd55cfbd	-0.052200068
115	0xbd3fb051	-0.046799008
116	0xbe35d17c	-0.17755693
117	0xbec3cc6d	-0.38241902
118	0xbc91c8af	-0.017795889
119	0xbc513ae0	-0.012770385
120	0x3da6184b	0.08110102
121	0xbda42383	-0.08014586
122	0x3dea6b6e	0.11446272
123	0xbe88d422	-0.26724344
124	0x3c5a50cf	0.01332493
125	0xbe3eee77	-0.18645655
126	0x3d068867	0.032844927
127	0xbdc5c4a4	-0.09656647
128	0x3e14c861	0.14529563
129	0xbc0c6c66	-0.008570766
130	0x3d0da538	0.034581393
131	0x3e9d563b	0.3072985
132	0xbe4d906a	-0.20074621
133	0x3e35faac	0.17771405
134	0xbdb4460d	-0.088024236
135	0xbe90c984	-0.28278744
136	0xbd7ec417	-0.062198725
137	0xbe139d03	-0.14415364
138	0x3ce7e141	0.028305652
139	0x3beaf4e9	0.007170309
140	0x3dfa79cd	0.12230263
141	0xbebb4856	-0.36578625
142	0x3e179720	0.14803743
143	0xbd72f86a	-0.059318937
144	0xbdcd6d2b	-0.10030588
145	0x3d3f4622	0.046697743
146	0x3dc0523d	0.09390686
147	0x3da79952	0.081835404
148	0x3ea5f61c	0.3241433
149	0xbe413a60	-0.18869925
150	0x3db3bd95	0.08776394
151	0x3dcb9703	0.099409126
152	0x3df9b5f2	0.121929064
153	0xbe3a3d55	-0.18187459
154	0x3e5e4b2d	0.21708365
155	0xbd02b386	-0.03190949
156	0xbd5c7265	-0.053820033
157	0x3e4d25a8	0.20033896
158	0xbd4f551e	-0.050618283
159	0x3c075cda	0.008261884
160	0x3e9ed16b	0.31019148
161	0x3e19a94d	0.1500599
162	0xbe09438b	-0.13404672
163	0xbd8adb36	-0.067800924
164	0x3ea441f5	0.3208157
165	0x3c183a1c	0.009291198
166	0xbe123caf	-0.14280961
167	0x3e06d7ae	0.13168213
168	0xbc9bb18c	-0.01900556
169	0xbde9bd12	-0.114130154
170	0xbd1359de	-0.035974376
171	0xbe747aa9	-0.23874916
172	0x3e5fac65	0.21843107
173	0xbdb86514	-0.09003654
174	0x3b3098db	0.0026946578
175	0x3d8768f7	0.06611817
176	0xbe2c18d4	-0.16806346
177	0x3e0e6a9c	0.13907856
178	0x3c725d65	0.014792775
179	0xbd803d7d	-0.06261728
180	0x3c239d8a	0.009986291
181	0xbe08ecec	-0.13371629
182	0x3e151d75	0.14562018
183	0x3d0889af	0.03333443
184	0x3cf639ce	0.03005686
185	0x3e23ecbc	0.16008276
186	0x3e33841f	0.17530869
187	0xbd330f10	-0.043715537
188	0xbe72284a	-0.23648182
189	0x3d3fd849	0.046837125
190	0x3d987ba6	0.07445459
191	0xbdb158c2	-0.08659507
192	0x3da1662a	0.078808144
193	0x3e4b078e	0.198271
194	0x3e6af6a7	0.22945653
195	0xbe185711	-0.14876963
196	0x3e3e3e7e	0.18578526
197	0x3d16fd7b	0.03686283
198	0xbd55f9b6	-0.052240096
199	0x3e5129f0	0.20426154
200	0xbde21641	-0.11039401
201	0xbce9c6f2	-0.028537247
202	0x3e888c60	0.26669598
203	0x3e13e9ce	0.14444658
204	0xbde08805	-0.10963444
205	0xbd63539a	-0.05549965
206	0xbd95ee14	-0.073208004
207	0xbe785e0a	-0.24254623
208	0xbd5842fb	-0.052798253
209	0x3d0028ba	0.03128884
210	0x3e20dfe2	0.15710405
211	0x3e4788a8	0.19485724
212	0xbe43f4aa	-0.191363
213	0x3c8a4d4b	0.01688256
214	0x3b7a887a	0.003822832
215	0x3ef2c474	0.47415507
216	0x3d9c5cb9	0.07634873
217	0x3db20150	0.086916566
218	0x3dbc853f	0.09205102
219	0x3e46f213	0.19428281
220	0xbd4b378d	-0.049613524
221	0x3e0c6876	0.13711724
222	0xbdb0c3b8	-0.086310804
223	0x3a975a74	0.0011547343
224	0xbdf20ac0	-0.11818457
225	0x3eccba60	0.39985943
226	0x3e0fb0d3	0.14032297
227	0x3e36a462	0.17836145
228	0xbc394227	-0.011307276
229	0xbe4fcb7b	-0.20292465
230	0xbe131841	-0.14364721
231	0x3d9e9361	0.07742954
232	0x3d3fd952	0.046838112
233	0x3e12ecae	0.14348099
234	0x3e053901	0.13010027
235	0x3df7abae	0.12093292
236	0x3e3d9097	0.18512188
237	0xbe82d0e8	-0.25550008
238	0x3e08d003	0.133606
239	0xbd52010c	-0.05127053
240	0x3e0b3514	0.13594466
241	0xbe3fe544	-0.18739802
242	0x3d335014	0.04377754
243	0x3c950462	0.018190566
244	0xbda882d7	-0.08228081
245	0x3bfca2c0	0.007709831
246	0xbd818a47	-0.063252024
247	0x3de7a40d	0.11310587
248	0x3ddc1f87	0.10748201
249	0x3e1ad649	0.15120806
250	0xbda0ed29	-0.07857735
251	0xbea07bcf	-0.31344458
252	0xbd586f33	-0.052840423
253	0xbe28d1d1	-0.16486289
254	0x3e2ce7f9	0.16885366
255	0xbe60c545	-0.21950252

net.0.bias f4 [64]
0	0xbd8b7f3e	-0.06811379
1	0xbd886513	-0.066599034
2	0xbe263a66	-0.16233215
3	0x3e5a1c6b	0.21299903
4	0xbe0176ff	-0.1264305
5	0xbd5a5b2f	-0.053309616
6	0xbb430e4b	-0.0029763158
7	0xbb181ff4	-0.0023212405
8	0x3d8d0cae	0.06887184
9	0xbc5a335e	-0.013317911
10	0x3e46b41a	0.19404641
11	0xbbf41aff	-0.0074495072
12	0xbe77ba32	-0.24192122
13	0x3e1c6fdc	0.15277046
14	0xbc8eeb91	-0.017446311
15	0xbe300770	-0.17190337
16	0xbd64abd4	-0.05582793
17	0x3d95bad6	0.07311027
18	0xbe33f0c0	-0.17572308
19	0x3dd815d8	0.10551041
20	0xbde1a396	-0.1101753
21	0xbe294ad0	-0.16532445
22	0xbcac9fde	-0.021072324
23	0xbe348d71	-0.1763208
24	0x3e3b047d	0.18263431
25	0x3e6f58c4	0.23373705
26	0x3d439775	0.047751863
27	0x3d695365	0.056964297
28	0xbe0adf9c	-0.13561863
29	0xbe8eccf6	-0.27890748
30	0x3da57191	0.08078302
31	0xbd83e7b6	-0.0644068
32	0x3e288bf9	0.16459645
33	0x3d701968	0.05861798
34	0x3d800554	0.06251016
35	0x3e3a2200	0.18177032
36	0xbd31a9e3	-0.043374907
37	0xbe35eb26	-0.17765483
38	0x3e87ce29	0.26524475
39	0xbdf56514	-0.1198217
40	0x3e2815ba	0.16414538
41	0x3b88be11	0.0041730483
42	0xbd969707	-0.07353025
43	0x3bdf8354	0.0068210755
44	0xbe297e10	-0.16551995
45	0xbe851bdf	-0.25997826
46	0xbd948ebb	-0.07253786
47	0xbe0f230b	-0.13978212
48	0x3e320351	0.17384078
49	0xbdadba84	-0.08482841
50	0x3e21187d	0.15731998
51	0xbbaab5f1	-0.0052096774
52	0x3dee01f6	0.11621468
53	0xbde700a4	-0.11279419
54	0xbe920eb3	-0.2852684
55	0xbe1cfb39	-0.15330209
56	0xbd91f760	-0.07127261
57	0xbe08d104	-0.13360983
58	0xbe282cdb	-0.16423361
59	0xbde6db42	-0.11272289
60	0xbe08dce6	-0.13365516
61	0x3d5e9a40	0.054346323
62	0xbd983618	-0.074321926
63	0xbd20ee69	-0.039289866

net.3.weight f4 [32, 64]
0	0xbde2a607	-0.110668235
1	0x3ddeb0c9	0.10873563
2	0x3dcf5525	0.10123662
3	0x3dab96d5	0.08378378
4	0x3dc299f4	0.095020205
5	0x3dc0c43d	0.094124295
6	0xbca60fda	-0.02027123
7	0xbd12c507	-0.03583243
8	0x3bcf948e	0.006334848
9	0xbbc22cd3	-0.0059257536
10	0x3da366b4	0.079785734
11	0x3c32aee2	0.010905953
12	0xbd667428	-0.05626312
13	0x3e33100c	0.1748659
14	0xbda7e8a3	-0.08198669
15	0xbdbe9a02	-0.093067184
16	0xbcc6bbeb	-0.024259528
17	0xbe0f7afc	-0.14011759
18	0xbcec5cd9	-0.028852867
19	0x3d3edeb9	0.046599124
20	0x3d3d92e4	0.046282664
21	0xbdbdd1c9	-0.09268529
22	0x3e6ca990	0.23111558
23	0x3ceceb5c	0.028920822
24	0x3d19ba64	0.03753127
25	0x3e2fff0b	0.17187135
26	0xbc84b930	-0.016201586
27	0x3d69f855	0.057121594
28	0x3da0e4a8	0.07856113
29	0x3d08c746	0.033393167
30	0xbe0e08b8	-0.13870513
31	0xbdbe3247	-0.092869334
32	0xbcbd9297	-0.023141189
33	0x3d063575	0.032765824
34	0xbc628fe2	-0.01382825
35	0x3c3fab35	0.011698534
36	0xbe37c860	-0.17947531
37	0x3e34b369	0.17646565
38	0x3e2f422f	0.17115091
39	0x3e3f4091	0.18676974
40	0xbdf3b4d7	-0.11899727
41	0xbdfa4c63	-0.12221601
42	0xbc0ac629	-0.008470097
43	0x3dc08009	0.09399421
44	0x3dcbfe76	0.09960644
45	0x3e78fec9	0.24315943
46	0x3dbcee62	0.092251554
47	0x3daf42a7	0.08557635
48	0x3e028cc5	0.12749012
49	0x3e4051c6	0.18781194
50	0x3e0c6ff1	0.13714577
51	0xbca73876	-0.020412665
52	0xbd6e8c0d	-0.05823903
53	0x3e7f59cf	0.24936603
54	0xbd831274	-0.06400004
55	0x3befce55	0.007318298
56	0xbcdff5a8	-0.027338818
57	0xbd31bb13	-0.0433913
58	0x3e25c931	0.1619003
59	0xbd82a0fb	-0.06378361
60	0x3e62025a	0.2207121
61	0x3e56c085	0.20971878
62	0x3db06497	0.08612936
63	0x3da2cc85	0.07949165
64	0x3d57d0aa	0.052689232
65	0x3c7098a9	0.0146848345
66	0xbe0a8c71	-0.13530137
67	0xbd0813b0	-0.0332219
68	0xbe13bcde	-0.14427516
69	0xbdc534a7	-0.09629183
70	0x3d297d52	0.04137928
71	0xbcb91611	-0.02259353
72	0x3d9fe084	0.07806495
73	0x3d826b70	0.06368148
74	0xbe96315b	-0.2933453
75	0xbe3121a4	-0.17297989
76	0x3dad22c3	0.08453896
77	0xbdf1e6a9	-0.11811573
78	0x3def3d51	0.11681617
79	0x3dece52f	0.11567151
80	0x3cf82375	0.030290345
81	0x3e004e1e	0.125298
82	0x3d30a72c	0.043128178
83	0xbd2a238f	-0.041537818
84	0xbe8d6194	-0.2761351
85	0xbe597464	-0.21235806
86	0xbdb8996c	-0.09013638
87	0xbc62b4a3	-0.013837012
88	0xbd792b8f	-0.060832556
89	0xbc6fa193	-0.014625925
90	0xbd8b1cda	-0.067926124
91	0x3e13461c	0.14382213
92	0x3e473105	0.19452293
93	0xba94151f	-0.0011297798
94	0x3ad24b9a	0.001604426
95	0xbd1cb45a	-0.038257934
96	0x3dcefedb	0.101072036
97	0xbc810459	-0.015749143
98	0x3d6a8d42	0.05726362
99	0x3d6c8eb0	0.057753265
100	0x3dd63255	0.10458819
101	0xbe13dfd0	-0.14440846
102	0xbe82b260	-0.25526714
103	0xbc83897d	-0.01605677
104	0x3da85780	0.08219814
105	0x3e3bfa90	0.18357301
106	0xbe3e3294	-0.18573982
107	0xbd57d9ff	-0.05269813
108	0x3e2d6d6b	0.16936271
109	0xbe00d8f7	-0.12582766
110	0x3d3a81da	0.045533992
111	0xbde09939	-0.10966725
112	0x3db2c1ec	0.08728394
113	0xbdc7fc37	-0.09764903
114	0x3e26b562	0.1628013
115	0x3e10a3d9	0.14125003
116	0xbe27c9d5	-0.16385587
117	0xbdce88f2	-0.10084714
118	0x3e095657	0.13411842
119	0x3d38484d	0.044990826
120	0x3d9e5635	0.077312864
121	0xbc484a62	-0.0122247655
122	0x3d093d82	0.033505924
123	0x3e52a0eb	0.20569198
124	0xbe7e3ea0	-0.24828577
125	0x3c393c0a	0.011305818
126	0xbde03251	-0.10947097
127	0xbe825ca4	-0.25461304
128	0x3dae45d1	0.0850941
129	0xbe05adc6	-0.1305457
130	0xbde92e8f	-0.113858335
131	0xbdb0e770	-0.08637893
132	0xbe0a7795	-0.1352218
133	0xbb129c1f	-0.0022370887
134	0x3dbb09c3	0.09132721
135	0x3e33f866	0.17575225
136	0x3cb8b078	0.022545084
137	0x3d570797	0.052497473
138	0xbcee6351	-0.029100092
139	0x3ccd99e9	0.025097804
140	0xbb007ef1	-0.0019606913
141	0xbd50e92d	-0.051003624
142	0x3d9465fd	0.07246015
143	0x3e0574a0	0.1303277
144	0x3c8c0605	0.017092714
145	0x3d9c02a4	0.07617691
146	0x3e3625d0	0.17787862
147	0x3d1cdc95	0.0382963
148	0xbdfa522d	-0.12222705
149	0xbe355f8b	-0.17712228
150	0xbe8eae40	-0.27867317
151	0x3d572824	0.052528515
152	0x3d3da61b	0.04630099
153	0x3db70afe	0.089376435
154	0x3d4f05be	0.050542586
155	0xbdf7b1cc	-0.12094459
156	0x3dfd41c8	0.123660624
157	0x3dacf512	0.08445181
158	0xbcd36a6b	-0.02580758
159	0x3daf314c	0.085543245
160	0x3d84223c	0.06451842
161	0x3d0ecd55	0.03486379
162	0x3d55809b	0.0521246
163	0x3d8acda6	0.067775056
164	0xbcb90960	-0.022587478
165	0xbe4f3ae3	-0.20237307
166	0xbe128458	-0.14308298
167	0xbde9be34	-0.114132315
168	0xbd9ece29	-0.07754166
169	0x3e2c0b4e	0.16801187
170	0xbe071a00	-0.13193512
171	0xbe225dff	-0.15856169
172	0x3da00903	0.07814219
173	0xbe443a89	-0.19162954
174	0xbe1fd8a7	-0.1560999
175	0xbd97bf67	-0.07409554
176	0xbd040252	-0.032228775
177	0xbda41c28	-0.08013183
178	0x3e0ff29a	0.14057389
179	0xbc8a58c7	-0.016888035
180	0x3ccdea4c	0.025136136
181	0xbd9ed468	-0.07755357
182	0x3ddcaf4b	0.10775622
183	0x3de67758	0.11253232
184	0x3e262d20	0.16228151
185	0xbe7fa763	-0.24966197
186	0xbd65c372	-0.056094594
187	0x3cd03801	0.02541733
188	0xbe772be2	-0.24137834
189	0x3d940ec3	0.07229378
190	0xbe51a056	-0.2047132
191	0xbd9fe1d0	-0.07806742
192	0x3b9e8ce6	0.0048385737
193	0x3d83ca25	0.064350404
194	0xbe1c2fe8	-0.1525265
195	0xbdb36176	-0.087588236
196	0x3cffc3c2	0.031221274
197	0x3d612bb2	0.05497331
198	0x3de61a37	0.11235469
199	0x3d852021	0.06500269
200	0x3c527f08	0.012847669
201	0x3ddb192d	0.10698161
202	0xbde6f9e6	-0.11278133
203	0x3dcc40e5	0.09973315
204	0xbcde1462	-0.027109329
205	0xbe2a4003	-0.16625981
206	0x3e49b30b	0.19697206
207	0xbc8fc9ba	-0.017552245
208	0xbcd2ad92	-0.02571753
209	0x3d54c709	0.051947627
210	0x3e8bb543	0.2728673
211	0xbcaac776	-0.020847064
212	0xbe5a2de6	-0.21306571
213	0x3c209411	0.009800927
214	0xbc070127	-0.008240021
215	0x3e360af9	0.17777623
216	0x3e14718e	0.14496443
217	0xbc719336	-0.0147445705
218	0x3dde45ca	0.10853155
219	0xbe01a002	-0.12658694
220	0x3e1d19ca	0.15341869
221	0x3d3bfda4	0.045896187
222	0x3d8f59a9	0.06999523
223	0x3b9b9549	0.004748021
224	0xbd165eda	-0.03671155
225	0x3daaed55	0.08346049
226	0xbd23306d	-0.039841104
227	0x3cc12531	0.023577305
228	0xbe063899	-0.13107528
229	0xbe2f74f1	-0.17134453
230	0xbe239cd5	-0.15977795
231	0x3d8b47bd	0.06800792
232	0xbcdea187	-0.027176632
233	0x3decc624	0.1156123
234	0xbd3e70c0	-0.046494246
235	0xba22a508	-0.0006204401
236	0x3c8a9357	0.01691596
237	0xbe1d6b3c	-0.15372938
238	0x3dbad347	0.09122329
239	0xbdb4282f	-0.08796727
240	0x3ca0b8ff	0.019619463
241	0xbdf1d352	-0.11807884
242	0x3d5cc037	0.053894248
243	0xbd92ed63	-0.07174184
244	0xbcbb79f8	-0.022885308
245	0xbe5e2073	-0.21692066
246	0x3e709fd4	0.2349847
247	0xbd95e85a	-0.07319708
248	0x3e174256	0.14771399
249	0xbe1cb61d	-0.15303846
250	0xbd8c793e	-0.068590626
251	0x3c5249c9	0.012834975
252	0xbd91aaa8	-0.07112628
253	0x3daa45a5	0.08314065
254	0xbdb48296	-0.0881397
255	0xbe4dba5a	-0.20090619

net.3.bias f4 [32]
0	0x3de296e7	0.110639386
1	0x3d3d9f11	0.046294276
2	0x3daca10c	0.08429155
3	0x3c932184	0.017960317
4	0x3db8d302	0.090246215
5	0x3c0b9777	0.008519999
6	0x3e279efd	0.16369243
7	0x3df1abf6	0.11800377
8	0x3e4f452d	0.20241232
9	0x3c623bae	0.013808174
10	0xbd2c685b	-0.04209171
11	0x3d9f9dcd	0.0779377
12	0x3d72b8cd	0.05925827
13	0x3e116993	0.1420043
14	0x3e228155	0.15869649
15	0xbc90aa19	-0.017659234
16	0xbd22e4fc	-0.039769158
17	0x3d75f859	0.060051296
18	0x3e1d2dc5	0.15349491
19	0x3e12dd84	0.14342314
20	0xbc8a6523	-0.016893929
21	0x3e05d945	0.13071163
22	0xbd9c22d4	-0.076238304
23	0x3d77f545	0.06053664
24	0x3e448bbe	0.19193932
25	0x3d405758	0.046958297
26	0x3e5365c2	0.20644286
27	0xbd38bbbe	-0.04510092
28	0x3dccc6fb	0.0999889
29	0x3e260adc	0.1621508
30	0x3de129c1	0.10994292
31	0x3ddc400c	0.107544035

net.6.weight f4 [1, 32]
0	0x3e2e2dde	0.17009684
1	0xbe88288a	-0.2659343
2	0xbe91bbce	-0.28463596
3	0xbe93d7bf	-0.2887554
4	0x3e99054f	0.29886863
5	0xbe589798	-0.21151578
6	0x3e1835da	0.14864293
7	0xbe858e47	-0.26085111
8	0x3e5eddc3	0.21764283
9	0xbec84c38	-0.3912065
10	0xbe5872a5	-0.21137483
11	0x3e015129	0.12628616
12	0xbede8501	-0.4346085
13	0xbe87a6fa	-0.2649458
14	0xbe981a68	-0.29707646
15	0xbb0b24d8	-0.0021231677
16	0xbe7cb7d8	-0.24679506
17	0x3e61a17d	0.22034259
18	0x3e600c2b	0.21879642
19	0xbef0240f	-0.4690251
20	0x3e5a7247	0.21332656
21	0x3ec827bc	0.39092815
22	0xbe45461d	-0.19265027
23	0x3e879133	0.26477966
24	0x3e88ab0c	0.26692998
25	0x3e9a8502	0.30179602
26	0x3eccb4fb	0.39981827
27	0xbe8fc5d7	-0.28080627
28	0xbe81a0cb	-0.25317988
29	0xbeefdaec	-0.46846712
30	0xbe51084b	-0.2041332
31	0xbe48ccc8	-0.19609368

mean f4 [21]
0	0x3f1845ba	0.59481394
1	0x3a61a1c3	0.0008607173
2	0x3d078ec3	0.033095133
3	0x3f955ec0	1.166954
4	0x3fc7a487	1.5597085
5	0xbf1c7189	-0.6111074
6	0x3e6ac1fb	0.2292556
7	0x39b172b2	0.00033845525
8	0x3e68452d	0.22682638
9	0x3ebcd31b	0.3687981
10	0x3f5e7338	0.8689456
11	0x3aa075a6	0.0012242093
12	0x3e68452d	0.22682638
13	0x4218d051	38.203434
14	0x3dc22a4e	0.09480725
15	0x3ebcd31b	0.3687981
16	0x3dbc0766	0.09181099
17	0x3fbd3f1c	1.4784884
18	0x433809f1	184.03883
19	0x3efc9a44	0.49336445
20	0x412d24b9	10.8214655

std f4 [21]
0	0x3f18259c	0.5943239
1	0x3a97b77f	0.0011575072
2	0x3d5a55fc	0.053304657
3	0x3fdcd3cb	1.7252134
4	0x3f048172	0.5176002
5	0x3ef23e9b	0.4731339
6	0x3ed73b81	0.42037585
7	0x39fb3271	0.00047912032
8	0x3ea2440d	0.31692544
9	0x3f1fe764	0.6246245
10	0x3e1fc9f5	0.15604384
11	0x3adc808f	0.0016822981
12	0x3ea2440d	0.31692544
13	0x42076bdb	33.855328
14	0x3d41ca1e	0.047311895
15	0x3f1fe764	0.6246245
16	0x3e4a09c4	0.19730288
17	0x3ff3753d	1.9020153
18	0x43841b6c	264.21423
19	0x3ebbb71e	0.36663145
20	0x40edcc06	7.431155
