models/bm_nn.pt (torch, 17384 bytes, 7 tensors)

net.0.weight f4 [64, 21]
0	0x3dc93f30	0.09826505
1	0x3e12fc3c	0.14354032
2	0x3e4a9428	0.1978308
3	0x3e598560	0.21242285
4	0xbd3557b5	-0.044273097
5	0xbd2919a7	-0.04128423
6	0xbc2b44ca	-0.010453412
7	0xbcc1c6fb	-0.023654452
8	0x3e465f09	0.1937219
9	0xbdf68d64	-0.12038687
10	0x3d1da55d	0.03848778
11	0x3e5ed470	0.21760726
12	0xbdc9a13c	-0.09845206
13	0x3e30a444	0.17250162
14	0xbe906fe7	-0.28210375
15	0x3dc9c158	0.098513305
16	0xbd425a7d	-0.047449578
17	0x3da5320d	0.08066187
18	0x3e80163e	0.2501697
19	0xbd5955f8	-0.0530605
20	0xbc43be8e	-0.011947287
21	0x3d88bf87	0.06677156
22	0xbde22b2d	-0.110433914
23	0x3d7da88d	0.06192832
24	0x3e668e25	0.22515161
25	0xbe0b48b0	-0.13601947
26	0xbd1cd44c	-0.0382884
27	0x3de8be15	0.1136438
28	0x3dd94ca7	0.106103234
29	0xbcb0dbab	-0.02158912
30	0x3eb6098d	0.35554162
31	0x3e0b5db6	0.13609967
32	0xbd1e22b8	-0.03860733
33	0xbe8b3f78	-0.2719686
34	0xbea6e728	-0.32598233
35	0xbe0937c3	-0.13400178
36	0x3ea6a683	0.32548913
37	0x3e451a5e	0.1924834
38	0x3ea35c75	0.31906477
39	0x3d6729f3	0.05643649
40	0x3d34716e	0.044053487
41	0x3e46a40d	0.19398518
42	0x3e2246e6	0.15847358
43	0xbe46d7d2	-0.19418266
44	0xbd9d4a53	-0.07680192
45	0xbe865798	-0.26238704
46	0x3d72b439	0.059253905
47	0x3e60b038	0.21942222
48	0x3e1fb584	0.15596586
49	0xbe135776	-0.14388832
50	0x3e0eb605	0.13936622
51	0x3df66c51	0.120323785
52	0x3bdf4713	0.0068138926
53	0x3a995552	0.0011698401
54	0x3dfa9698	0.12235755
55	0x3d940878	0.07228178
56	0x3e3b49b1	0.1828983
57	0x3d944311	0.072393544
58	0xbcfbe374	-0.030748107
59	0xbe3f3d9f	-0.1867585
60	0xbd7e4f10	-0.06208712
61	0x3e5c98f7	0.21542726
62	0x3e5d2c7a	0.21598998
63	0x3d6d9e43	0.05801226
64	0xbd32e91c	-0.04367934
65	0x3df3d6c7	0.119062
66	0x3c141707	0.009038693
67	0xbe5c5bd9	-0.21519412
68	0x3e870e7d	0.2637824
69	0xbd38f62f	-0.045156654
70	0x3d8ac717	0.067762546
71	0x3d463599	0.04839096
72	0xbe9a3484	-0.3011819
73	0xbd1f613a	-0.03891108
74	0xbc911453	-0.017709887
75	0x3dd2e3c4	0.10297349
76	0x3ca58faa	0.020210106
77	0x3e26a797	0.16274868
78	0xbea74ddd	-0.32676592
79	0xbd992e14	-0.07479492
80	0xbe5cb0d4	-0.2155183
81	0xbeaabd5b	-0.33347592
82	0xbd66cf8b	-0.056350272
83	0xbe59e81d	-0.2127995
84	0x3e3a0690	0.18166566
85	0x3d120577	0.035649743
86	0xbce2583f	-0.02762997
87	0x3d2c4e65	0.04206695
88	0x3be04c71	0.00684505
89	0x3e3330ac	0.17499036
90	0xbe6e425a	-0.23267499
91	0x3e436da1	0.19084789
92	0x3c93f7c8	0.018062487
93	0xbeb63c2a	-0.35592777
94	0x3e23f9f7	0.16013323
95	0xbe12fa45	-0.14353283
96	0xbdbd5db7	-0.0924639
97	0x3e16ca8b	0.14725702
98	0x3e02ec6c	0.127855
99	0xbeadc5af	-0.33939883
100	0xbd23792f	-0.03991049
101	0x3da244a7	0.07923251
102	0xbd11fe5d	-0.03564297
103	0x3bdd1519	0.0067469
104	0x3ca31610	0.019907981
105	0x3db11a18	0.08647555
106	0xbe807d37	-0.2509553
107	0xbe6104aa	-0.21974435
108	0xbe203aad	-0.15647383
109	0xbda713ec	-0.08158097
110	0xbe977788	-0.29583383
111	0x3e24518f	0.16046737
112	0x3e96ce3f	0.29454228
113	0x3dd079b1	0.10179461
114	0xbe2fb1f8	-0.17157733
115	0xbde085b0	-0.10962999
116	0xbeb240ad	-0.3481497
117	0xbe18b896	-0.14914164
118	0x3d4d94a0	0.050190568
119	0xbddfe892	-0.10933031
120	0x3cf32737	0.029681785
121	0xbef63896	-0.48090047
122	0xbc1c28a0	-0.00953117
123	0x3d2d877a	0.04236553
124	0xbda148f7	-0.07875245
125	0x3d508bc0	0.050914526
126	0x3dad628b	0.08466061
127	0xbe827bcc	-0.25485075
128	0xbdcd196a	-0.10014613
129	0xba930bbb	-0.0011218706
130	0xbe92f8eb	-0.28705534
131	0xbd93d59a	-0.07218476
132	0xba7b5692	-0.000958779
133	0xbe860093	-0.26172313
134	0xbdc3cdf7	-0.09560769
135	0xbe236759	-0.15957393
136	0x3da9f733	0.08299103
137	0x3e997f88	0.2998011
138	0x3d86b1de	0.06576894
139	0xbe0dfe3c	-0.13866514
140	0xbcd925ca	-0.026507277
141	0x3cd623ba	0.026140083
142	0x3e31b5ae	0.17354462
143	0xbe37c1ea	-0.17945066
144	0x3dfcddc6	0.123469874
145	0x3d7a2a29	0.061075363
146	0x3d4417a7	0.04787412
147	0x3e60d115	0.21954758
148	0x3e86482c	0.26226938
149	0xbd94ddf7	-0.07268899
150	0x3b2a094c	0.0025945483
151	0xbb9e0630	-0.004822515
152	0x3e889328	0.2667477
153	0xbdfc085c	-0.12306282
154	0x3e461f45	0.19347866
155	0xbd376afb	-0.04477976
156	0xbecbc365	-0.39797512
157	0x3d4255cb	0.0474451
158	0xbdc6049c	-0.09668848
159	0x3d3d0584	0.04614784
160	0xbd05f03d	-0.032699812
161	0x3e4b9b5a	0.1988348
162	0xbee66f0e	-0.45006603
163	0x3d8371e0	0.06418204
164	0xbd8cfc89	-0.06884105
165	0xbe6c63c3	-0.23084931
166	0xbcd565ab	-0.026049456
167	0x3dc5f359	0.096655555
168	0x3e2c7443	0.16841225
169	0xbe833fdb	-0.25634655
170	0xbdc49420	-0.09598565
171	0xbcc14f4e	-0.023597386
172	0xbe186d6d	-0.14885493
173	0x3e45b248	0.1930629
174	0xbd0bc2d8	-0.034121364
175	0xbdc2799e	-0.09495853
176	0x3e499780	0.19686699
177	0xbe2f6df0	-0.17131782
178	0xbdd54ca7	-0.10415011
179	0x3e64a362	0.2232795
180	0xbe17abd0	-0.14811635
181	0xbdef519c	-0.11685488
182	0x3d0d89cc	0.03455524
183	0xbe8b9f00	-0.27269745
184	0xbe26287f	-0.16226386
185	0xbd947001	-0.072479255
186	0x3b920d22	0.004457132
187	0x3dbf7dcb	0.09350165
188	0x3caec64c	0.02133479
189	0xbe939358	-0.28823352
190	0xbe001628	-0.12508452
191	0x3bfa62fe	0.0076411953
192	0x3e6a7f35	0.22900088
193	0xbe0b1fbb	-0.13586323
194	0xbdfdc825	-0.1239169
195	0xbe087113	-0.13324384
196	0xbd6ecf14	-0.058302954
197	0x3d1be22f	0.038057502
198	0x3e3e2d10	0.18571877
199	0x3dcff85b	0.10154792
200	0x3dee44e4	0.116342336
201	0x3e15de19	0.14635505
202	0x3e36ab3e	0.17838761
203	0x3dea6fa2	0.114470735
204	0xbe12b594	-0.14327079
205	0x3d69967f	0.05702829
206	0x3d215daa	0.039395966
207	0xbe69644e	-0.2279217
208	0xbe3feff1	-0.18743874
209	0x3e6adb13	0.22935133
210	0x3e49e0bc	0.19714636
211	0x3e04c75f	0.12966679
212	0x3df2c056	0.118530914
213	0xbde56574	-0.11200991
214	0x3d4753aa	0.048663773
215	0x3e257f8a	0.16161934
216	0xbd7aacef	-0.06120008
217	0xbd25f688	-0.040518314
218	0x3e8732ff	0.26406094
219	0x3e7d9e15	0.24767335
220	0x3df4fdc5	0.11962465
221	0x3d0ac704	0.033881202
222	0xbd64dfb6	-0.05587741
223	0xbcae6ec1	-0.021293046
224	0x39cc0059	0.0003891017
225	0x3d2e730a	0.04259018
226	0x3da58cde	0.08083509
227	0x3d22362e	0.03960245
228	0x3e78c2f9	0.24293126
229	0x3d8ceed8	0.06881493
230	0xbe0945c1	-0.13405515
231	0x3e7cef31	0.2470062
232	0x3dc81152	0.097689286
233	0xbd9ec8b0	-0.07753122
234	0x3e0ee7f7	0.13955675
235	0x3e917d27	0.28415796
236	0x3e831ae2	0.25606447
237	0x3c00ae1f	0.007854014
238	0x3e6d2cd9	0.2316164
239	0xbd27ea58	-0.040994972
240	0x3e9a703b	0.3016375
241	0xbca9352f	-0.020655243
242	0xbc83d763	-0.016093915
243	0x3e7d22df	0.24720334
244	0x3d254250	0.040346444
245	0x3d341285	0.043962974
246	0x3e7cafbf	0.24676417
247	0x3e32f548	0.1747638
248	0xbe4ac750	-0.19802594
249	0x3dcbfce8	0.099603474
250	0xbe0822f6	-0.13294587
251	0xbdc07f90	-0.093993306
252	0xbd5e0b79	-0.05421016
253	0xbdf25988	-0.11833483
254	0xbd8cf233	-0.06882133
255	0x3dae2b93	0.08504405

net.0.bias f4 [64]
0	0xbd83073d	-0.06397865
1	0xbdb5f026	-0.08883695
2	0x3e33b14f	0.17548107
3	0x3df44464	0.11927107
4	0xbd56d6cc	-0.05245094
5	0xbe5cdeab	-0.21569316
6	0xbd2c0cf6	-0.042004548
7	0x3d83016a	0.06396754
8	0xbe089150	-0.13336682
9	0x3dbb0112	0.091310635
10	0x3e68ec17	0.22746311
11	0xbd08139d	-0.03322183
12	0x3de625e5	0.112376966
13	0x3e248c1f	0.16069077
14	0xbe2e9e9e	-0.17052695
15	0x3e171249	0.14753069
16	0xbc26e220	-0.010185748
17	0xbb912476	-0.0044293953
18	0xbe5c1089	-0.21490683
19	0x3e51cf21	0.2048917
20	0xbcc23109	-0.023705022
21	0xbe846d83	-0.258648
22	0x3de7a8ef	0.113115184
23	0x3d86e7b8	0.065871656
24	0x3d2741b9	0.040834162
25	0x3d1d9823	0.038475167
26	0x3d15c60b	0.03656582
27	0x3dc8728f	0.09787475
28	0xbdf770bb	-0.120820485
29	0xbe698f87	-0.22808658
30	0xbe01ad8e	-0.12663862
31	0xbe262411	-0.16224696
32	0xbe18c9a6	-0.14920673
33	0x3de4dd16	0.11174981
34	0xbd8e94d8	-0.069619834
35	0xbd46e95d	-0.048562396
36	0x3c79f63c	0.015256461
37	0x3d9d409b	0.07678338
38	0xbd013695	-0.031546194
39	0x3e45f1d6	0.19330534
40	0xbd90f32d	-0.07077632
41	0x3de0f136	0.10983507
42	0x3d1ecd52	0.038770027
43	0x3da59316	0.08084695
44	0x3d2a0bd7	0.041515198
45	0x3e5d41a2	0.21607068
46	0x3db4c849	0.08827264
47	0x3e0d85ba	0.13820544
48	0x3e028b93	0.12748556
49	0xbe2f957c	-0.17146868
50	0x3e3ac90b	0.18240754
51	0x3e227d23	0.15868048
52	0x3e1dbfac	0.15405148
53	0x3e1a5917	0.15073048
54	0xbdd351e2	-0.10318352
55	0x3e566c41	0.20939733
56	0xbcf2cc69	-0.029638486
57	0xbe24e098	-0.161013
58	0x3e6d0e43	0.23149972
59	0x3e368100	0.17822647
60	0x3df932c4	0.12167886
61	0x3e82eb86	0.25570315
62	0x3d5f2ce9	0.05448619
63	0x3dfb5949	0.12272889

net.3.weight f4 [32, 64]
0	0xbe6738f1	-0.22580315
1	0xbe83e934	-0.25763857
2	0x3d421d0e	0.04739099
3	0x3dd7b5af	0.105327
4	0xbc9ef4fd	-0.019403929
5	0xbe567999	-0.20944823
6	0x3e144803	0.14480595
7	0x3e219e37	0.1578301
8	0x3d5a8c9e	0.05335676
9	0x3c29ca9c	0.010363247
10	0xbdc3c50b	-0.09559067
11	0xbe14f8fb	-0.14548104
12	0xbe45b88d	-0.19308682
13	0xbc9623d6	-0.018327635
14	0xbd733fae	-0.0593869
15	0xbb4c7d3d	-0.0031202578
16	0xbe036e93	-0.1283515
17	0x3d8843a4	0.066535264
18	0x3dac5d8d	0.08416281
19	0xbc535f53	-0.012901145
20	0xbcee5e71	-0.029097768
21	0x3d54c83c	0.05194877
22	0x3d8caf66	0.06869392
23	0x3e4309c3	0.19046693
24	0x3d0fdedd	0.03512465
25	0xbd45ad5e	-0.04826104
26	0xbd2112e5	-0.03932466
27	0x3e16a3a9	0.14710869
28	0x3d8f005c	0.069824904
29	0x3e7c3ca1	0.24632503
30	0xbdae80a8	-0.08520633
31	0x3dc7022b	0.097172104
32	0x3dfac1d7	0.12244003
33	0x3ca88d8d	0.02057531
34	0x3db5bbc5	0.08873705
35	0x3df9313e	0.12167595
36	0xbd792a96	-0.06083163
37	0x3d7a8f1d	0.06117164
38	0x3dd22a30	0.10261953
39	0xbd691e78	-0.056913823
40	0xbd9ecec2	-0.0775428
41	0x3e07bf3b	0.13256542
42	0xbdc987c0	-0.098403454
43	0x3d493dc4	0.04913117
44	0xbe125b01	-0.14292528
45	0x3d70a621	0.058752183
46	0x3e32a5e6	0.17446098
47	0x3b93de2c	0.004512569
48	0xbdd8a3f5	-0.10578147
49	0x3e0aee7a	0.13567534
50	0xbe4e0c74	-0.20121938
51	0x3d8eb609	0.06968314
52	0xbdfb77dd	-0.122787215
53	0x3d542d66	0.051801108
54	0xbe3c803a	-0.1840829
55	0xbdbd8e09	-0.09255607
56	0x3d8cd459	0.068764396
57	0xbd1f1acf	-0.038843926
58	0x3d1f4a5e	0.03888928
59	0x3e1edcdd	0.1551394
60	0xbe4cf841	-0.20016576
61	0xbe350f74	-0.17681676
62	0xbd7b58a9	-0.06136385
63	0xbe1c8854	-0.1528638
64	0xbde3e118	-0.111269176
65	0xbc95b3f6	-0.018274289
66	0x3d4d0025	0.050048966
67	0x3de24187	0.110476546
68	0x3d3e7e0c	0.046506926
69	0xbe7894bb	-0.24275486
70	0x3d0b9441	0.034076933
71	0x3dbdc416	0.09265916
72	0x3dae2436	0.085030004
73	0xbd19219a	-0.03738556
74	0xbe57210e	-0.21008703
75	0xbe907900	-0.28217316
76	0xbdde1622	-0.10844065
77	0xbdc0492f	-0.09388959
78	0xbd02022c	-0.031740353
79	0x3d090c87	0.033459213
80	0x3cc79fe3	0.024368232
81	0x3d4ae2c0	0.049532652
82	0x3df89930	0.12138593
83	0x3d877cff	0.06615638
84	0x3d823ab8	0.06358856
85	0x3e4ca645	0.19985302
86	0x3e385e3e	0.180047
87	0x3dc5cc39	0.09658093
88	0x3e1687e0	0.1470027
89	0xbd53b2fc	-0.051684365
90	0xbe099bde	-0.13438365
91	0x3e2017b7	0.15634046
92	0x3dbc3bf7	0.09191125
93	0x3dcfd5dc	0.10148212
94	0xbdf34f2a	-0.11880334
95	0xbcb2e21a	-0.02183633
96	0x3e17bdd7	0.14818512
97	0xbddfd2ac	-0.10928854
98	0x3e74bf7c	0.2390117
99	0x3e1554fc	0.145832
100	0x3cbd6914	0.023121394
101	0x3d18d12e	0.037308864
102	0x3d62e5de	0.055395
103	0xbe07ab09	-0.13248838
104	0xbd493cf2	-0.049130388
105	0x3e1e746e	0.15474102
106	0xbe163117	-0.14667164
107	0x3b215a71	0.0024620558
108	0xbe14ec99	-0.1454338
109	0x3d9e0975	0.077166475
110	0x3e0f794e	0.14011118
111	0xbcbf7d11	-0.023375066
112	0xbe147575	-0.14497931
113	0xbd7c7ee7	-0.06164446
114	0xbdefc66f	-0.1170777
115	0x3ceff3d0	0.029291064
116	0xbde16481	-0.11005498
117	0xbc9ec79c	-0.01938229
118	0xbe3eab77	-0.18620096
119	0xbd8676b9	-0.06565613
120	0xbdac2ab5	-0.08406583
121	0xbe0cd67d	-0.13753696
122	0x3a0447cc	0.0005046099
123	0x3d0f7d23	0.03503145
124	0xbe614acf	-0.22001193
125	0xbd3b251b	-0.045689683
126	0xbdd7fed5	-0.10546652
127	0xbe6c2783	-0.23061948
128	0x3d592d2f	0.053021606
129	0x3d8075aa	0.06272443
130	0x3e03acf2	0.12858942
131	0x3c23f5d5	0.010007341
132	0xbe04c1e3	-0.12964587
133	0x3d494b35	0.04914399
134	0xbdf30d3f	-0.11867761
135	0xbe55d53c	-0.20882124
136	0xbd0efe20	-0.03491032
137	0xbd49af02	-0.049239166
138	0x3ddae2d3	0.106877945
139	0xbd928f0e	-0.07156192
140	0x3ca47174	0.02007363
141	0xbc95654c	-0.018236779
142	0xbe10db7d	-0.14146228
143	0x3da0bd16	0.07848565
144	0x3d04fd95	0.032468397
145	0xbd942509	-0.072336264
146	0xbdbeb4d6	-0.093118355
147	0x3d972129	0.07379372
148	0xbe3fef45	-0.18743618
149	0xbdecf5be	-0.11570309
150	0x3d537935	0.051629264
151	0xbbe032cc	-0.006841993
152	0xbca9242f	-0.020647136
153	0xbc267983	-0.010160807
154	0x3dde5a41	0.10857058
155	0xbd028ac3	-0.031870615
156	0xbd4c39f6	-0.049859963
157	0xbe25201a	-0.16125527
158	0xbd87d251	-0.066319115
159	0xbe016201	-0.12635042
160	0xbe017be0	-0.12644911
161	0x3dc86e6e	0.09786688
162	0xbdc04918	-0.093889415
163	0xbd387ec2	-0.04504276
164	0x3e1861b8	0.14881027
165	0xbc25c1e6	-0.01011703
166	0x3b958f47	0.004564199
167	0x3cdfb968	0.027310088
168	0x3e072d8f	0.13200973
169	0x3e09441d	0.1340489
170	0x3e592c40	0.21208286
171	0x3d3e0a3f	0.04639649
172	0x3e10cebf	0.14141367
173	0x3dbea15f	0.09308123
174	0x3e298a5f	0.1655669
175	0x3e46c900	0.19412613
176	0xbd43dd52	-0.04781849
177	0xbe675c40	-0.22593784
178	0xbd780000	-0.060546875
179	0xbd296517	-0.041356172
180	0x3e1f5efc	0.15563577
181	0xbb575ce2	-0.003286176
182	0x3e280c9f	0.16411065
183	0x3df136e7	0.1177805
184	0xbdf193b4	-0.1179575
185	0xbda5bc7c	-0.08092591
186	0xbd035716	-0.032065473
187	0x3cf485af	0.029848902
188	0x3d14a979	0.036294434
189	0x3d86bfa4	0.06579521
190	0x3da55196	0.08072202
191	0x3e181000	0.14849854
192	0xbdff95ce	-0.12479745
193	0x3df695cb	0.120402895
194	0x3e1b9b38	0.1519593
195	0xbb11140c	-0.0022137193
196	0xbdcbce24	-0.099514276
197	0xbd9714ba	-0.07377
198	0xbe4186b2	-0.18899038
199	0x3b3ef7fb	0.0029139507
200	0x3c935dd1	0.017989071
201	0xbe804fb1	-0.250608
202	0xbd4b0a9b	-0.04957066
203	0xbda39387	-0.07987123
204	0x3d2bc65a	0.04193721
205	0x3dc98b80	0.09841061
206	0xbe4de658	-0.201074
207	0x3dca799f	0.09886479
208	0x3e082b10	0.13297677
209	0xbd1c7a9c	-0.038202867
210	0xbd7a2980	-0.061074734
211	0x3d5a5efa	0.053313233
212	0xbe7effbb	-0.24902241
213	0xbe031638	-0.12801445
214	0x3de19ad6	0.11015861
215	0xbdfc4893	-0.1231853
216	0x3d0364cc	0.03207855
217	0xbd714d15	-0.0589114
218	0x3e198026	0.14990291
219	0xbdfa615e	-0.122256026
220	0xbe23879e	-0.15969703
221	0xbdf96aeb	-0.12178596
222	0xbc5cdd16	-0.013480445
223	0xbe50dd32	-0.2039688
224	0x3d1e1f37	0.038603988
225	0x3e1c9faa	0.15295282
226	0xbe08e4b6	-0.13368496
227	0xbdd90933	-0.10597458
228	0x3ce23579	0.027613388
229	0xbd82b1d9	-0.06381578
230	0x3da1efe3	0.07907083
231	0x3d4299c3	0.04750992
232	0xbc06e5f7	-0.008233539
233	0x3d80ef46	0.06295638
234	0x3e8ba7bc	0.2727641
235	0x3d398d2f	0.04530066
236	0x3d144138	0.03619501
237	0x3e1da02d	0.15393133
238	0x3e200b78	0.15629375
239	0xbc465e2b	-0.012107412
240	0xbd829a1f	-0.063770525
241	0xbd9f24a6	-0.07770662
242	0x3cd16954	0.02556292
243	0x3d66a597	0.056310263
244	0x3e00e39a	0.12586823
245	0xbc0d7427	-0.00863365
246	0x3e015679	0.12630643
247	0xbd016d57	-0.031598415
248	0xbdb9ccdf	-0.09072279
249	0x3d606873	0.05478711
250	0xbd1ddfb9	-0.038543437
251	0xbd3a1f2b	-0.04543988
252	0x3d3cf685	0.046133537
253	0x3d017ee1	0.03161514
254	0xbd89efa5	-0.06735162
255	0x3db58139	0.08862538

net.3.bias f4 [32]
0	0x3e1470ea	0.14496198
1	0x3d5b8b44	0.05359961
2	0x3e1065e6	0.14101371
3	0x3dab2b2b	0.08357843
4	0xbd2b413e	-0.041810267
5	0x3d469859	0.048485134
6	0xbd98ef5e	-0.07467531
7	0x3d2690a7	0.040665295
8	0xbac881f7	-0.0015297522
9	0x3dfd5821	0.12370325
10	0xbdd1ccb2	-0.10244121
11	0x3b291853	0.0025801852
12	0x3d4d9751	0.050193135
13	0x3df44560	0.11927295
14	0x3d400bf1	0.04688639
15	0x3db3bb96	0.087760136
16	0x3dfcd234	0.123447806
17	0x3e039e19	0.12853278
18	0x3db9fd4b	0.09081515
19	0x3d8da5c9	0.06916387
20	0x3d082c10	0.033245146
21	0x3d5a2d59	0.053265903
22	0xbd09de07	-0.033659007
23	0xbd5d7ad7	-0.054072227
24	0x3d88a199	0.06671447
25	0xbc0dfd1f	-0.008666306
26	0x3e0420a4	0.12903076
27	0x3e2638ab	0.16232555
28	0x3dd7f4a9	0.10544712
29	0x3dbd2e6c	0.0923737
30	0xbcdda403	-0.027055746
31	0x3cd88aaf	0.026433317

net.6.weight f4 [1, 32]
0	0xbe8b8039	-0.27246264
1	0xbec18a5b	-0.3780087
2	0x3e482bcb	0.19547956
3	0x3e2dc00a	0.16967788
4	0x3e70b1c6	0.23505315
5	0xbe7b400d	-0.24536152
6	0xbe8d5a4d	-0.27607957
7	0xbe9ed407	-0.3102114
8	0x3e0033d7	0.12519775
9	0xbe688518	-0.22707021
10	0x3daef0f4	0.08542052
11	0x3e8c2436	0.27371377
12	0x3e8845eb	0.26615843
13	0xbe3d12e3	-0.18464236
14	0xbe95448c	-0.2915386
15	0xbe607884	-0.21920973
16	0x3e6a9cb7	0.22911344
17	0x3e1d444d	0.15358086
18	0x3dfb9618	0.122844875
19	0xbeabf788	-0.3358729
20	0x3e515cfd	0.20445628
21	0x3e57e062	0.21081689
22	0x3e0dab49	0.13834871
23	0xbe3b02f5	-0.18262847
24	0xbe82ab64	-0.25521386
25	0x3e1a7bf0	0.15086341
26	0x3e155d1b	0.14586298
27	0x3e2fdd14	0.17174178
28	0xbe3fe991	-0.18741442
29	0x3e853c3d	0.2602252
30	0x3e6669bb	0.2250127
31	0x3e318df9	0.17339315

mean f4 [21]
0	0x3f18cec3	0.59690493
1	0x3a610de5	0.00085851393
2	0x3d06ed25	0.032941002
3	0x3f93fbaa	1.1561177
4	0x3fc7e99d	1.5618168
5	0xbf1c1868	-0.6097474
6	0x3e699c96	0.22813639
7	0x39b1adb0	0.00033889478
8	0x3e66db3c	0.22544569
9	0x3eb96ea0	0.36217213
10	0x3f5e7c84	0.86908746
11	0x3aa09ba2	0.0012253413
12	0x3e66db3c	0.22544569
13	0x42186b8b	38.105022
14	0x3dc2bc7b	0.09508606
15	0x3eb96ea0	0.36217213
16	0x3dbbae80	0.091641426
17	0x3fbbbb30	1.46665
18	0x4337282e	183.15695
19	0x3efd58a7	0.494817
20	0x412d64f7	10.83715

std f4 [21]
0	0x3f17ea87	0.59342235
1	0x3a93eca5	0.0011285736
2	0x3d557092	0.05210931
3	0x3fd7a491	1.6847097
4	0x3f044a11	0.51675516
5	0x3ef30416	0.47464055
6	0x3ed6dd74	0.4196583
7	0x39fe03b4	0.00048449414
8	0x3ea27fd4	0.3173815
9	0x3f1bcf3c	0.6086309
10	0x3e209d10	0.15684915
11	0x3add357e	0.0016876904
12	0x3ea27fd4	0.3173815
13	0x4206218e	33.53277
14	0x3d4106fe	0.04712581
15	0x3f1bcf3c	0.6086309
16	0x3e435b59	0.19077815
17	0x3ff0b853	1.8806251
18	0x4384a095	265.25455
19	0x3ebbd856	0.3668849
20	0x40ee1d4f	7.4410777
